…
[2022-06-12 11:25:09] - timemask
[2022-06-12 11:25:09] 
[2022-06-12 11:25:09] Running on device cuda
[2022-06-12 11:25:09] Transforms:
[2022-06-12 11:25:09] Sequential(
[2022-06-12 11:25:09]   (0): TimeMask()
[2022-06-12 11:25:09] )
[2022-06-12 11:25:17] AdamW (
[2022-06-12 11:25:17] Parameter Group 0
[2022-06-12 11:25:17]     amsgrad: False
[2022-06-12 11:25:17]     betas: (0.9, 0.999)
[2022-06-12 11:25:17]     eps: 1e-08
[2022-06-12 11:25:17]     lr: 0.001
[2022-06-12 11:25:17]     maximize: False
[2022-06-12 11:25:17]     weight_decay: 0.01
[2022-06-12 11:25:17] )
[2022-06-12 11:25:17] Crnn(
[2022-06-12 11:25:17]   (fc): Linear(in_features=128, out_features=10, bias=True)
[2022-06-12 11:25:17]   (batchnorm): BatchNorm1d(64, eps=1e-05, momentum=0.1, affine=True, track_running_stats=True)
[2022-06-12 11:25:17]   (conv_block1): Sequential(
[2022-06-12 11:25:17]     (0): Conv2d(1, 16, kernel_size=(3, 3), stride=(1, 1), padding=(1, 1))
[2022-06-12 11:25:17]     (1): BatchNorm2d(16, eps=1e-05, momentum=0.1, affine=True, track_running_stats=True)
[2022-06-12 11:25:17]     (2): ReLU()
[2022-06-12 11:25:17]     (3): MaxPool2d(kernel_size=2, stride=2, padding=0, dilation=1, ceil_mode=False)
[2022-06-12 11:25:17]   )
[2022-06-12 11:25:17]   (conv_block2): Sequential(
[2022-06-12 11:25:17]     (0): Conv2d(16, 32, kernel_size=(3, 3), stride=(1, 1), padding=(1, 1))
[2022-06-12 11:25:17]     (1): BatchNorm2d(32, eps=1e-05, momentum=0.1, affine=True, track_running_stats=True)
[2022-06-12 11:25:17]     (2): ReLU()
[2022-06-12 11:25:17]     (3): MaxPool2d(kernel_size=2, stride=2, padding=0, dilation=1, ceil_mode=False)
[2022-06-12 11:25:17]   )
[2022-06-12 11:25:17]   (conv_block3): Sequential(
[2022-06-12 11:25:17]     (0): Conv2d(32, 64, kernel_size=(3, 3), stride=(1, 1), padding=(1, 1))
[2022-06-12 11:25:17]     (1): BatchNorm2d(64, eps=1e-05, momentum=0.1, affine=True, track_running_stats=True)
[2022-06-12 11:25:17]     (2): ReLU()
[2022-06-12 11:25:17]     (3): MaxPool2d(kernel_size=2, stride=2, padding=0, dilation=1, ceil_mode=False)
[2022-06-12 11:25:17]   )
[2022-06-12 11:25:17]   (conv_block4): Sequential(
[2022-06-12 11:25:17]     (0): Conv2d(64, 128, kernel_size=(3, 3), stride=(1, 1), padding=(1, 1))
[2022-06-12 11:25:17]     (1): BatchNorm2d(128, eps=1e-05, momentum=0.1, affine=True, track_running_stats=True)
[2022-06-12 11:25:17]     (2): ReLU()
[2022-06-12 11:25:17]     (3): MaxPool2d(kernel_size=2, stride=2, padding=0, dilation=1, ceil_mode=False)
[2022-06-12 11:25:17]   )
[2022-06-12 11:25:17]   (biGRU): GRU(512, 64, batch_first=True, bidirectional=True)
[2022-06-12 11:25:17] )
[2022-06-12 11:25:20] Epoch 1   training_loss: 0.38  val_loss: 0.34  precision: 0.18  recall: 0.02  f1: 0.04
…
